model_dir/vrae.pth (torch, 23651 bytes, 15 tensors)

encoder.model.weight_ih_l0 f4 [80, 1]
00000000: d5c8 8c3e 78f2 a33d 7c12 453e 3b72 603e
00000010: 4881 e6bd 6c73 143e 634a 313e 977f 783d
00000020: da09 5b3d fe86 163d c08c 963d 526b 5b3e
00000030: d04b a73c 6c31 86be 8c51 343e 6d7a 863d
00000040: 69d3 8fbe 3d6c 94be 819f 67be 09a3 54be
00000050: 174e ab3d 820e 8c3e af4c 8d3d 4e33 953d
00000060: 6481 cabd 0958 213e c9e5 9a3d e94b a63d
00000070: 94f4 af3d 34ab 443e 3bdf ef3d 9d82 5f3e
00000080: 54ae cd3c 8958 8abd 898b 143e c07f 1d3e
00000090: f44f 25be a55f d1bd 1ceb 49be 28e3 34be
000000a0: dd4f 3e3e 5a92 503e 7c13 c0bd 99a8 363e
000000b0: c4c2 333e 7684 54be 31ad 33be 3179 843d
000000c0: 37ee 593e 9ffd 333e 8ebf cdbd 5b30 193e
000000d0: e877 34be 5da1 4b3e 6a70 623e 2ebe 17be
000000e0: 6816 163e 03b5 743a 9d08 98bd a34a 293e
000000f0: 032a 2c3e 82de c13e 2c6d 673e 713d 763e
00000100: c8ef 903d ffdb e83d de54 473e 2544 8fbe
00000110: dd77 c03d d7ac 9cbe 4d95 3c3e 262e 45be
00000120: ccde 27be 2096 e0bc 509a 1c3e 899e 3b3e
00000130: bdf2 a1bd 1904 2ebe 0312 bfbd e742 69be
0.27496973 0.080052316 0.19245332 0.21918575 -0.11255127 0.14497155 0.17313533 0.060668554
0.053476192 0.036749832 0.07351065 0.21427658 0.020421892 -0.2620958 0.17609233 0.065663196
-0.2809098 -0.2898883 -0.2261944 -0.20765318 0.08364504 0.2735482 0.06899392 0.07285176
-0.098879606 0.15756239 0.07563359 0.081199475 0.085915715 0.19205934 0.117125 0.21827169
0.02510754 -0.06755168 0.14506353 0.15380764 -0.16143781 -0.10223321 -0.19718593 -0.17664778
0.18585153 0.20368329 -0.09378716 0.17837752 0.17554766 -0.20753655 -0.17546536 0.06468428
0.21282278 0.17577218 -0.10046302 0.14959852 -0.17623866 0.19885774 0.22113195 -0.14818642
0.14656985 0.0009334834 -0.07423518 0.16532378 0.16812901 0.37865072 0.2260024 0.24046876
0.07076985 0.11370086 0.19465968 -0.27981678 0.09397862 -0.30600616 0.18416329 -0.19255885
-0.16393584 -0.027415335 0.1529324 0.18322195 -0.07907627 -0.1699375 -0.09329607 -0.22779427

encoder.model.weight_hh_l0 f4 [80, 20]
00000000: 99c9 563e 0a3a 993d 1e6e 05be 3286 7e3e
00000010: b601 b23e 2fa5 553e 7357 8fbe 4cff 323e
00000020: ae0a f53d a76d a5be fac7 873e 8b45 983e
00000030: 377a 553e aea3 e93c 0e71 8b3e 82c7 fdbe
00000040: 2ef2 e63e 7ca9 6abe a182 6d3c b0ab bc3d
00000050: 097d 6a3d ad98 54be 87b7 333c 8516 25be
00000060: 96ab c73c b29f 9cbe 8905 05bd 74fe a5be
00000070: d84a ed3d d93b 623e bd2c 59be 4efb d23d
00000080: 825a b5be 2368 a23e f711 0abe 7193 553d
00000090: 40ee 48be 75ac da3e 0f12 5f3e a8db 1e3d
000000a0: 4321 3bbd 2846 cbbd 0176 bd3d f9d8 0ebe
000000b0: e215 333e 85ef 5b3e 63f6 56be 6eb7 88bc
000000c0: 9936 e03d a81e e33d 832d e03e 1313 c6bd
000000d0: 10cc da3e 04be 4fbe ce4b 06be c611 e5bd
000000e0: 5a2e 673e 680d bebd f0fa 34bd 4ef5 803e
000000f0: 4a8a 2f3e cbb3 fcbc 9129 efbd aa0e ba3e
00000100: 3d85 cf3e 5c03 6a3e b875 c5bd 427c 653e
00000110: 15de f83e c526 69be 567d 9e3e e640 d13e
00000120: a43b c73d 8d8b 33be 6605 063f f43a 87be
00000130: 9b13 ed3d e95f f9be 68d4 78be eaf7 e93d
00000140: 4503 8ebd 2f5f 033e 5236 9e3e 02c7 eebd
00000150: 4325 32bd 7991 1abf 44ae b23d 7bc9 e6bd
00000160: 5147 813e b193 c2be befb e63e 2635 c4be
00000170: a099 46be 9a99 013e cb21 2e3d a2e2 cb3d
00000180: b309 5ebf e6c5 21be 4855 103f 54c6 a03c
00000190: 8336 8b3e fd38 943e 288c 23be f620 ad3e
000001a0: 280c a93e b348 c03d 4c9d 34be f39e d33e
000001b0: 9f6b 483e 9ffd 85bd 1001 873e 21da 0bbf
000001c0: 3cc9 34be 3f5b 44be 7a67 933d a37e aabe
000001d0: 87a2 813d 3519 adbe 30d3 9fbe 5d1c 823e
000001e0: b40b f83e a86e ab3e d45d 73be 92b7 993e
000001f0: b3e9 433e cd3b 893e 7322 aabe 2bc2 a5bd
00000200: 2d6f a73e bcff 193e c877 ee3d 7c33 883e
00000210: de88 703e 405e 33bd cc13 983e 970e bdbd
00000220: edf1 e4bd 47ab 71be dea1 01bd 261b c33d
00000230: 3767 113e 3e41 5b3e d933 e8be 257f 9c3e
00000240: f10f 073e 0448 a93e f833 83be f082 323e
00000250: 2ad1 913e c401 5fbe 74af be3d 1966 1cbe
00000260: afed 3c3e 7c69 8cbe 16d6 953e ef51 8ebe
00000270: 6351 7f3e 79a1 bdbd ed0f c6be e3f6 9f3e
00000280: 5828 ea3d 8f8a 2cbe 6c17 e13c 869c c73c
00000290: d7a5 16be 5a08 103e dc37 ea3d b9b5 5dbe
000002a0: 9702 aebe 0e22 873e ad71 9dbe 5223 b6bd
000002b0: e117 1fbe 6569 133e 59e7 edbd 5a4d afbd
000002c0: e9d5 84bc 9254 573e f90d 1a3e 7e13 253e
000002d0: 25a0 1cbc 63f0 673d 9edd 74be e688 5dbd
000002e0: c2d1 b2be 9596 c1bd 8954 d13c 7830 61be
000002f0: 2b5d 04bd 69a7 023e 18f4 c9be a901 e93e
00000300: 6ac7 edbd 6c00 813e a696 db3d 12ee d4bd
00000310: d6dc b9be c8b4 70bd a26e dd3d 0030 bfbe
00000320: 0cce 92be c2d2 cabd d664 953e 6f79 d1be
00000330: 2f6f e0be 6f59 a9be d1d3 e43d 46c8 80be
00000340: e1cc 13be 7e9a ad3d 3994 07bf 103c 51be
00000350: 7f1f 0bbf dbe6 023f 490b a4be 674f 753d
00000360: b450 f5bd 9a66 dc3d 483e 163e d926 bebe
00000370: a1b7 2c3e cb0b 533e 7e09 19be 19de d53e
00000380: d672 be3e 2906 fb3e 9697 b3be 15ce fe3d
00000390: 92e2 b23e 7c82 f73c ffcc 04be 3b72 ea3e
000003a0: b6ae 003f 9307 3cbe 333e 903e 46be 17be
000003b0: 6908 cd3e 79f8 b2be 3f10 cbbd a598 d53e
000003c0: 93d7 b6bd 3d57 943e 93db d83e ef79 c2bd
000003d0: f874 83be 1df1 79be 05cd 703e b28f 97be
000003e0: 78b6 c53d 030f 803d 4578 b3bd 4c72 5abe
000003f0: c647 aebe 4f32 6f3e 98de 5dbd fbcc aabd
0.20975341 0.07481773 -0.13030288 0.24855879 0.3476693 0.20863794 -0.27996406 0.174802
0.119649276 -0.3231022 0.26519758 0.29740557 0.20847403 0.028520431 0.2723469 -0.49566275
0.45106643 -0.22916216 0.014496476 0.09212434 0.05724815 -0.20761366 0.010969049 -0.16121872
0.02437381 -0.30590588 -0.03247598 -0.32420695 0.11586541 0.22093143 -0.21208473 0.10301839
-0.35420614 0.31720075 -0.13483416 0.052142564 -0.19622135 0.427097 0.21784233 0.0387837
-0.045686018 -0.099254906 0.09251023 -0.13949956 0.17488816 0.21478088 -0.20992427 -0.016689029
0.10947914 0.110898316 0.43784723 -0.09671607 0.42733812 -0.20287329 -0.13114855 -0.11185031
0.22576275 -0.09279901 -0.044184625 0.25187153 0.17142597 -0.03084745 -0.1167785 0.36339313
0.4053134 0.22852844 -0.09641594 0.22410682 0.48606935 -0.22768696 0.30955 0.40869826
0.097281724 -0.17533703 0.5235199 -0.26412165 0.11576005 -0.48705986 -0.24299777 0.11424239
-0.06934217 0.12829278 0.30900818 -0.116590515 -0.043492567 -0.60378224 0.08724645 -0.11268898
0.25249723 -0.38003305 0.4511394 -0.383218 -0.19394541 0.1265625 0.042512696 0.09955336
-0.8673355 -0.15798149 0.5638013 0.01962582 0.27190027 0.2894973 -0.15971434 0.3381421
0.33017087 0.09388866 -0.17638129 0.41332206 0.19572304 -0.06542515 0.26367998 -0.54629713
-0.1765489 -0.19175433 0.07197471 -0.3329974 0.06329828 -0.33808294 -0.3121581 0.25412264
0.4844643 0.33482862 -0.23766261 0.30022866 0.19132118 0.26803437 -0.33229408 -0.08093675
0.32702008 0.15038961 0.1164394 0.2660178 0.2348971 -0.043791056 0.29702604 -0.092312984
-0.11178956 -0.23600493 -0.03164851 0.095266625 0.1419953 0.21411607 -0.45352057 0.30565754
0.13189675 0.33062756 -0.25625587 0.17432761 0.28479892 -0.21778017 0.09310809 -0.15273322
0.18450044 -0.27424228 0.29264897 -0.27796885 0.2493339 -0.09259314 -0.38684025 0.31243047
0.11433476 -0.16849731 0.027476989 0.024366628 -0.147117 0.14065686 0.114364356 -0.21651353
-0.3398635 0.2639317 -0.3075079 -0.088934556 -0.15536453 0.14395674 -0.11616392 -0.085596755
-0.016215282 0.21028355 0.15044393 0.16120717 -0.009559666 0.056625735 -0.23912665 -0.054085635
-0.34925658 -0.09452549 0.025553005 -0.21991146 -0.032315414 0.12759174 -0.3944404 0.4550908
-0.11610301 0.25195634 0.10722093 -0.10396971 -0.36301297 -0.058766156 0.10812117 -0.3734131
-0.28672826 -0.0990348 0.29178494 -0.4091296 -0.43834826 -0.33076045 0.11173213 -0.25152797
-0.14433624 0.08476733 -0.52960545 -0.20433068 -0.54344934 0.5113351 -0.3203986 0.059890177
-0.119782835 0.10761757 0.14672196 -0.37139013 0.16866924 0.20609967 -0.14945027 0.4177101
0.37196988 0.49028137 -0.35076588 0.12441651 0.34938484 0.030213587 -0.12968825 0.45790276
0.5026659 -0.18362264 0.28172454 -0.14818677 0.4004548 -0.34955195 -0.09915208 0.4171802
-0.08927836 0.28972808 0.42355022 -0.09495913 -0.25675178 -0.24408384 0.23515709 -0.29601818
0.09653944 0.06252863 -0.08763174 -0.21332663 -0.34039134 0.23359035 -0.05416736 -0.08339878

encoder.model.bias_ih_l0 f4 [80]
00000000: 7213 063e 86f3 0b3d 3d7a 89bc 631c a03e
00000010: 3af4 083d 423b e83e 81b4 f83d 1787 923e
00000020: 4b6c 3bbe 79ba 3a3d 753a 09be c1ec e43d
00000030: 82b9 cb3d aa5c df3d 8afa b93e 0e73 b23d
00000040: 4e6d 363e 7642 6b3e de34 153e 0714 753d
00000050: fa51 a43e ee56 92be bee6 0a3f 6a88 d33e
00000060: 2d79 32be b5ff b03d 1afd 983e ffd8 173e
00000070: 9fc1 a5be bd71 c9be b7f3 34be 3414 c83d
00000080: fb31 173d 3ee6 57bd 3411 d83e 0ef4 3c3c
00000090: 34c1 883d 9b17 a73d 3366 6d3e 2db4 593e
000000a0: 55cb d73e c5a7 95be 6371 fdbe 99ef 883e
000000b0: 6c53 323e ab3d 913e 7524 8cbe fe2f 983e
000000c0: 225e 81be a8c3 9e3e 4d9e 58be 475c 893e
000000d0: 2ef2 ad3e 89b1 84be 9df4 013f 5532 76be
000000e0: 4236 923e e721 f0be e704 0abe a2fb cb3e
000000f0: d030 0a3f f445 d5be 83a1 4d3e 1c3d e03e
00000100: 2bf5 e9bc fbd6 d13e 3b96 a63e 46a2 8f3e
00000110: 1e43 8abd 50f8 44be 7ea7 883d 3e5d 093e
00000120: 4695 1bbe 29a7 4b3e efba 033f dbb5 1e3f
00000130: c5a4 e83e 77a3 333f b05c e73c 1069 b73e
0.13093355 0.03416779 -0.01678192 0.31271657 0.033436038 0.4535771 0.121438034 0.2861869
-0.18303029 0.04558799 -0.13401206 0.1117797 0.09947492 0.10906346 0.3632396 0.08713351
0.17815134 0.22974572 0.14570948 0.059833553 0.32093793 -0.28581947 0.54258335 0.41315013
-0.17429037 0.08642522 0.298806 0.14828871 -0.32374284 -0.39344588 -0.17671095 0.097694784
0.0369129 -0.05270981 0.42200625 0.011532797 0.066774756 0.08158799 0.23183517 0.21260138
0.42147318 -0.2922956 -0.4950057 0.26745299 0.17414635 0.2836736 -0.27371565 0.29724115
-0.2526713 0.3100865 -0.21154137 0.26828215 0.3397383 -0.259167 0.50763875 -0.24042638
0.2855702 -0.46900865 -0.13478433 0.39840418 0.5398073 -0.41654932 0.20081143 0.43796623
-0.028559288 0.4098433 0.32536492 0.28053492 -0.06751083 -0.19235349 0.066725716 0.13414475
-0.15193662 0.19887985 0.51457113 0.6199624 0.4543821 0.701713 0.028242439 0.35822344

encoder.model.bias_hh_l0 f4 [80]
00000000: 1059 983e d160 733d cab0 833e bfb5 813e
00000010: b5ce 1c3e ad71 e13d 8280 0e3e 7a81 ba3e
00000020: 2d82 bd3d 2587 66bd 7b46 4fbe cade bd3e
00000030: cfa0 493e 671d aa3e 94c3 a63e f612 433e
00000040: dfb9 3e3e 3fa1 913e 1cfe 253e fa0d 253e
00000050: a78c 093f 18de 94be f98d 083f f973 113e
00000060: f976 c03d b53e 9e3e a49e 093d 4c47 8b3e
00000070: 1e53 c2bb 1aae 34be 4453 f4be 465c c43d
00000080: 8f70 9cbd 412e efbd cd1f 043f c419 6c3e
00000090: f9b1 583d 5d26 a83e c31b b63e 0d0c 523e
000000a0: 831e f53d 81d9 96be 9732 5bbe acf1 be3e
000000b0: f30b 333e 038e 863e 50d6 473d 3a95 933e
000000c0: 0d90 a43d 8b88 213e 0f77 14be 4edc bc3e
000000d0: 1ed7 443e 78a7 a9be c31f cc3d 457d 00bf
000000e0: 18b0 aa3e e4bc edbe 8065 1bbe 398e 013e
000000f0: 3a37 313f d569 1ebf 36e1 043f 10d7 893e
00000100: 9d44 243d 3ee6 cb3e 97fb ad3e f58c 423e
00000110: 353c 1fbe 48d7 5ebe db05 c6bc b403 1dbe
00000120: 8448 0a3c c48a f53c 43fc b33e 68f4 ad3e
00000130: 840a ae3e 8df8 3a3f 39b0 e7ba 9f4e 183e
0.2975545 0.059418503 0.25720817 0.25333974 0.15313227 0.1100801 0.1391621 0.36426908
0.09253345 -0.056281228 -0.2024173 0.37084037 0.1969025 0.33225557 0.3257109 0.19050202
0.18625592 0.28443334 0.16210216 0.16118613 0.53730243 -0.29075694 0.53341633 0.14204396
0.09397692 0.30907217 0.033598557 0.27202833 -0.0059303185 -0.1764454 -0.47719777 0.09587912
-0.07638656 -0.11678744 0.51611024 0.23056704 0.052904103 0.3284177 0.35568056 0.2051241
0.1196871 -0.29462817 -0.21406017 0.37293756 0.17485027 0.2628022 0.04878837 0.28824788
0.08035288 0.15774743 -0.14498542 0.3688683 0.19222686 -0.3313558 0.099669956 -0.50191146
0.33337474 -0.46433175 -0.15175438 0.1265191 0.69224894 -0.61880237 0.51906145 0.26921892
0.040104497 0.39824098 0.3398101 0.18999083 -0.15550311 -0.21761811 -0.024172714 -0.15333444
0.008440141 0.029973395 0.35153398 0.3397553 0.33992398 0.7303551 -0.001767642 0.14873742

lmbd.hidden_to_mean.weight f4 [20, 20]
00000000: 3a46 a33e d314 1cbe 96fc 2ebd ffff 573e
00000010: 8228 c8bd 81e3 0a3e 533f b03e 8a92 583e
00000020: 555f 16bf 5b12 133a 7039 fdbd 1445 933e
00000030: 4a8b 083b af2c aebe 5f19 4cbe ca95 b6be
00000040: e2fb b63e 31b8 96be 8d3b 97bd 86ef 9a3e
00000050: c8fb 7f3d ba18 92be 8617 f5be ac7c a7bd
00000060: 0e04 3abe a87c 76bc 5a22 afbe fe90 dd3e
00000070: feab 3bbf a509 42be baf0 6b3e f0e3 14be
00000080: fe75 1ebd 5e84 ba3e 68d5 df3d f325 adbe
00000090: b528 b93e 01a3 b5be 0333 18bf 3cb8 15bc
000000a0: 3747 8d3e 5464 91bf f8be cdbe d952 cd3e
000000b0: 5f23 c23e 5f3d b53e 6a5c c9be dba0 333e
000000c0: 3afc febe 323b 673d b5a0 bdbb bb78 ac3d
000000d0: 621f a0be 2cf8 063c 3dfe 9b3e fe6d dcbe
000000e0: 14cf ca3e d217 e0be 0e4a fabe 4799 713e
000000f0: acc9 043e 2555 5cbe b19e 9abd 4f5c 9f3d
00000100: 1b43 fc3e 254a 153f af7a 9dbe b32d ae3e
00000110: d6b1 7fbe 8d7e b8bd 82ec b3be 4b07 893e
00000120: ace7 d13e 1f09 59be b922 a73d ad8d 08bf
00000130: 3f56 373f 3a8e 30bf f231 cabd 2325 043f
00000140: 7aa6 1f3e 7025 4e3d 8478 f7bc 6255 aabe
00000150: f47d 113f 78d7 543e 9018 79be 68b5 1b3f
00000160: b9e4 8d3d 8d36 0cbe 072e 5f3d 0f1f de3d
00000170: 08b0 453e 5293 a0be 002f 963e 6539 7abd
00000180: 3495 753e 315b 2fbf fabc 52be 491c 2b3d
00000190: 0e58 a23e 0cf9 2abe a47b f8bd 3490 ed3e
000001a0: 5bf7 8f3d d3db ae3e 2613 b9be 8464 313f
000001b0: 5e4f 40be e89f f2bd 6b00 353e 3f9d 743e
000001c0: 739e 4abe 91f9 0e3e 8295 15be 679e 98be
000001d0: 0bd6 8e3d e29c 87be 9e32 3fbf a9da 103f
000001e0: 7e4b 18bf efad 843e 9e22 173d 46c7 0dbe
000001f0: bd12 7bbb ff94 1abf c351 b63d e2e1 d4be
00000200: b60d 3b3e c08d d93d 7435 033f f44d a5bd
00000210: 593a 87bd ffbd 883e 7e78 febd 42cb da3e
00000220: 2fed dfbe 9081 513f f63d 443e 9606 03bf
00000230: 8a22 0f3e 22e6 8d3e 60af ed3d 5e6d c63c
00000240: ba28 4cbc 4a0a 0dbe ecb1 803e dea7 5e3e
00000250: a6a8 c73e 53e0 1cbe 3625 da3e 8f57 033f
00000260: eb4a febd 2562 b63d 7722 9e3e 7137 23be
00000270: 497f 81be 524f 513d 09f6 d7be 9c3c 463e
00000280: e1b4 52be e018 543e 8906 5b3e f304 4d3e
00000290: 773d e9be 7b21 e4be b341 da3e 740c 28bd
000002a0: 7bc9 b93e e715 d3bd 5f41 0fbe 8c73 f9bc
000002b0: 8324 a3be 0217 433e 3e10 25be 5bf3 91bd
000002c0: bcc0 0abc 947a f43e acc4 cd3e c2e8 6abd
000002d0: 7165 c3be 03f9 923e 9c12 3e3e 6adf 05bf
000002e0: dfc9 9bbe 3865 f0bd 6c0b 113f 2f6b b4be
000002f0: a84c 9bbe 452a c6bd 975a 2ebd 7039 ecbd
00000300: 7cbe dbbd e733 aabe 9d91 b7be 84d5 24be
00000310: fb1e 1dbf 1ef6 323f 4b6d f03e 9b0c f3be
00000320: 8fc3 e5bd c49c bcbd adf0 8e3b 1161 a5be
00000330: 75fd 0bbe 2468 4bbe 4969 bebc 6272 19bf
00000340: 1319 333d 23bf 083e 8543 58bd 8d82 0dbe
00000350: 3d4a a9bd 73a1 53be a7ba 2e3e 4ad1 4b3e
00000360: c58d 84be 7ed4 8f3e f55f a23e dd97 72be
00000370: d9df 9c3e 6f92 d7be e47f 0d3e 6ef1 32bc
00000380: 44ff 3d3f a1d8 4f3e b6a1 edbe 1589 f13e
00000390: b7f5 b8be 8263 cf3e 487e b9be 6cbf 963d
000003a0: 1b4e be3c 0317 683e a12f ea3e 39be c9bc
000003b0: e4c1 a93d 21c0 fdbe e671 0abf 5525 cb3e
000003c0: 7da0 973e 64c3 0cbf d8bc b2be 9961 613e
000003d0: 5610 1bbe 5bae 583c 4a0e b1be 9e81 f93e
000003e0: 4666 75bf c6c5 95be 0d88 26be 7e10 9f3e
000003f0: ace3 22be 03bc 83be a15d 063f 650d ccbe
0.31889516 -0.15242319 -0.042721353 0.21093749 -0.09773351 0.13563348 0.34423313 0.2114965
-0.58739215 0.000561034 -0.12364471 0.2876364 0.0020834976 -0.34018466 -0.19931553 -0.35661155
0.35739046 -0.29437402 -0.07384405 0.30260867 0.062495977 -0.2853449 -0.4786951 -0.08178076
-0.18165609 -0.015044369 -0.34205896 0.43274683 -0.73309314 -0.18948992 0.23041049 -0.14540076
-0.038686745 0.36429113 0.10929376 -0.33818015 0.3616387 -0.35475925 -0.5945284 -0.009138163
0.27593395 -1.1358743 -0.4018476 0.4010227 0.3791761 0.35398385 -0.3932832 0.1754183
-0.4980181 0.056452937 -0.00578698 0.08421465 -0.31273943 0.00823788 0.30467406 -0.43052667
0.39611113 -0.43768173 -0.48884624 0.23593627 0.12967557 -0.21516855 -0.07549799 0.07781278
0.49269947 0.5831626 -0.30757663 0.3401924 -0.24970183 -0.09008513 -0.3514138 0.26763377
0.40997064 -0.21194886 0.0816092 -0.5334118 0.71615976 -0.6896702 -0.098728076 0.51619166
0.1559085 0.050328672 -0.030208834 -0.33268267 0.56832814 0.2078532 -0.24325776 0.6082368
0.06928391 -0.13692684 0.054487254 0.10845768 0.19305432 -0.31362396 0.29332733 -0.061089892
0.23982698 -0.6849852 -0.20579901 0.04177502 0.31707805 -0.16696566 -0.121329576 0.4639908
0.07029601 0.34152088 -0.36147422 0.69294 -0.18780276 -0.11846906 0.1767594 0.2388811
-0.19787006 0.1396239 -0.14607814 -0.2980835 0.06974419 -0.2648688 -0.7468661 0.5658365
-0.5949019 0.2591395 0.036898248 -0.13845548 -0.003831073 -0.603836 0.089023136 -0.41578585
0.18266949 0.1062274 0.5125344 -0.08071509 -0.06602926 0.26707456 -0.12425326 0.42733198
-0.43735644 0.8183832 0.19164261 -0.51181924 0.1397802 0.2771464 0.11605716 0.024222072
-0.012460882 -0.13773456 0.25135744 0.21743724 0.38995856 -0.15319948 0.42606515 0.5130548
-0.12416633 0.08905438 0.3088567 -0.15939118 -0.25292423 0.051101036 -0.42179897 0.19359058
-0.20576812 0.20712614 0.21389212 0.20021419 -0.45554706 -0.44556794 0.4262825 -0.0410275
0.3628653 -0.10306912 -0.13989781 -0.030450605 -0.31863794 0.19051746 -0.16119477 -0.071264945
-0.008468803 0.4774977 0.4018911 -0.05735088 -0.3816333 0.28705606 0.18561786 -0.5229403
-0.30427453 -0.11738056 0.56658053 -0.35238025 -0.30331922 -0.09676031 -0.042566862 -0.11534393
-0.107296914 -0.33242723 -0.35853282 -0.16097075 -0.613754 0.69906795 0.46958384 -0.47470555
-0.112189405 -0.09209588 0.004362187 -0.32300618 -0.13670905 -0.19863945 -0.023243563 -0.5994016
0.043725085 0.13354163 -0.052798767 -0.13819332 -0.08266113 -0.20667057 0.1706339 0.19904056
-0.25889412 0.28091806 0.31713834 -0.23690744 0.30639532 -0.42103907 0.13818318 -0.010921819
0.7421763 0.20297481 -0.46412438 0.47174898 -0.36124966 0.40505606 -0.36229157 0.073607296
0.023230603 0.22665028 0.45739463 -0.024626838 0.08288935 -0.49560645 -0.54080045 0.3967692
0.2961463 -0.5498564 -0.349097 0.22009887 -0.1514295 0.013225163 -0.34581214 0.48731703
-0.9585918 -0.29252452 -0.16262837 0.3106727 -0.15907162 -0.2572938 0.52486616 -0.3985397

lmbd.hidden_to_mean.bias f4 [20]
00000000: 74a3 3d3d 9b14 aa3e 1608 203e 5492 b33e
00000010: 39c0 fd3d fb26 cd3e 1908 9ebe 0dcb 153e
00000020: 3d83 a0be 4221 ffbd 1e2d 253e 7d6d 0f3e
00000030: c827 3a3e c5c6 223e 5158 a6be 7fbc 99be
00000040: ed2c 7c3d f55c 7ebe 06fb a73b 9a69 1f3e
0.04629846 0.33218846 0.15628085 0.35072577 0.12390179 0.40068802 -0.30865553 0.14628239
-0.31350127 -0.12457515 0.16130492 0.1400661 0.18179238 0.15896137 -0.32489255 -0.30026624
0.061566282 -0.24840148 0.00512636 0.15567628

lmbd.hidden_to_logvar.weight f4 [20, 20]
00000000: 7678 e5bd fa38 cd3e 0a0e 3f3e c1bc 413d
00000010: e598 e1be 725c c4bb dd6c b63d 2c4d 97be
00000020: ea4d b63e 82bf 1c3e 1678 10bc e1b5 a83d
00000030: 57d3 69be 9e8e cf3e 8e47 86bd 653c ff3b
00000040: 4bc1 443d e192 5a3e d852 e23e 848f abbe
00000050: 820a 39bd 82e8 49be bbce b1bd 3c15 ee3d
00000060: b4ca 433d ab1b 90bd 83f2 27be 7d65 98be
00000070: d7fe 813e 5779 2abf 745f 4c3e 3c24 243f
00000080: 163f 9abd 3001 4dbe 5663 99be 75ab 573e
00000090: 6c78 8c3e c8f3 1dbe 2160 913e 303d 403e
000000a0: 37e1 85be 4cf2 543e c6fe 343e 5435 ccbe
000000b0: a921 f43d 5427 abbe 5805 803d 6432 d8be
000000c0: 3ae8 443f 9ad8 5c3e 605b 61be 86b5 ab3d
000000d0: caa8 39bf 4807 3d3e 7998 22be d36d 863e
000000e0: 94f9 6a3e c2b8 00be e4a9 1bbe d748 81bc
000000f0: 175c ecbd c1c5 cbbe 71e5 b43e f528 90bd
00000100: 5ec1 b73d ee34 60be e7ad 8e3e 7e47 f83e
00000110: 7cb5 103f 180c 223f 61ec 09be 65d4 8ebe
00000120: 2d14 a43e 3e85 5ebe 4337 86be f0a6 ad3e
00000130: 2a45 963e 5257 123e 0afc f5bd f527 a23d
00000140: f6de 06be 8b2f a83e a7c6 2c3b 78ca 5cbe
00000150: d99d 75be 8f28 3f3e 3ce1 033e 0f76 89bd
00000160: cbab e33e e5c4 003e 15b6 8e3e 7ff4 d5be
00000170: a531 54bd 72e8 c0be 0eb6 8cbe 2f89 eb3d
00000180: 1697 a43d 98df b23e e904 41bd 5b78 183f
00000190: 1a79 f6be 7d66 8c3e a42b 443e 4b2d 543e
000001a0: 0c4e b2be acf2 6ebe 7d97 c83e 6b57 0fbf
000001b0: b2fb 70be 2522 64be 0de3 4bbd 1551 adbe
000001c0: 62a6 9abd 81d4 0abe 624c 4fbd c561 883e
000001d0: 34f6 d3be cf16 993e 4b7e bb3e 9632 f93d
000001e0: b384 20bc 5da4 5c3e 862e 933e 63d8 01bf
000001f0: 91d4 eabe 5523 f4bd d57d e33d 6182 e6bd
00000200: 207e 1f3e 5af6 243f 5c23 c93d ffb3 8a3e
00000210: a620 863e 5442 d1be 56d5 08bf 3b9c 3fbd
00000220: b3de 2cbe 4a62 833e 1584 18bd c047 fcbe
00000230: 1c43 583e 36d4 08be e684 3ebe 2a7c dfbe
00000240: fddf 823e bc0c 273e b38f 8bbc c339 23bd
00000250: 00d2 1a3f 5701 adbd ebf1 e13c 96d3 473e
00000260: 7db8 77be 60f0 fbbe 0017 1ebd 1e0d 21be
00000270: e16c 01bf 8ef8 a0be e5bb cfbd 5347 18be
00000280: a2a0 97be 6f41 b63d a10c b8be 484d b2be
00000290: ffef b33e 0c1f c43b 9b96 6e3e 87d0 6cbe
000002a0: 4031 3b3f cdbf 313f 5698 5ebe 923c bbbe
000002b0: 36e3 2dbd e7ad cabc 64d9 cdbe c969 c83e
000002c0: 67e0 1a3d 21b0 c1be ac96 203e 2a4a 053e
000002d0: efd8 1abf 54ec 44bd 629e 25be 88e2 93be
000002e0: b04b 87be 0063 1dbf 59ce 9e3e 8374 1abf
000002f0: 722d 85bc eba3 d53d 314a 51be a367 c1be
00000300: 4c46 f9be 8d1c ad3d f8c8 dbbe 0274 fa3d
00000310: 4b2f 50be 4148 7a3d 3fde 0b3f 2677 2ebe
00000320: 5316 33bd 0707 95bd 66e6 28be 5636 073e
00000330: df91 e63d e6b4 873d dd61 f2bd 5dee d4be
00000340: 0d33 213e da51 593e 8923 94bd d7c6 183d
00000350: 5766 54be d20d c8bc 5aac 61be a9e8 3b3d
00000360: d130 0fbe 9b70 583e 0b31 b53e 1199 8c3d
00000370: 2e22 d4bd 0384 563d 0414 5b3e 00c5 f5be
00000380: 92e8 0bbf 3d66 2ebe f63b 7f3e 66f3 06bf
00000390: 1784 963e 73c6 cb3d 214c 59bc 9ba3 bdbe
000003a0: 1334 bcbc a50f 3cbe 5152 edbc 874c a83c
000003b0: 6c46 58be 15aa a03e 4f48 073f 81fa 86be
000003c0: 8ee2 babd fd3c 87be efc2 ac3d 5a13 8bbe
000003d0: a506 1abe 436b 25be 9ae0 0c3f 1f1f 55bc
000003e0: 78e4 033e afa5 093e e21d 57be 6847 71be
000003f0: df7f 8cbe 26ea 393f 92fc c63d b5f5 7dbd
-0.11204617 0.40082532 0.18657699 0.04729915 -0.44061962 -0.0059924657 0.08907483 -0.29551065
0.3560632 0.1530743 -0.008817693 0.08237816 -0.22834526 0.40538496 -0.06556617 0.007789182
0.0480359 0.21345092 0.4420383 -0.3350793 -0.045176037 -0.19717601 -0.08682009 0.11625144
0.047800735 -0.07036527 -0.16401105 -0.2976493 0.2538974 -0.665914 0.19958287 0.6411779
-0.07531564 -0.20019984 -0.299586 0.210615 0.27435625 -0.15425026 0.28393653 0.18773341
-0.26148388 0.20795554 0.17675313 -0.39884436 0.11920483 -0.33428442 0.06251019 -0.42225945
0.7691685 0.21567002 -0.22007513 0.08384232 -0.72523177 0.18459809 -0.15878476 0.26255664
0.22946769 -0.1257048 -0.15201527 -0.015781803 -0.11541002 -0.39799312 0.353313 -0.07039062
0.08972429 -0.21895191 0.27867052 0.48492044 0.56526923 0.63299704 -0.13469078 -0.2789642
0.32046643 -0.21730515 -0.26214036 0.33916426 0.29349643 0.14291123 -0.12010963 0.079177774
-0.1317099 0.32848772 0.0026363523 -0.2156161 -0.23985995 0.18667816 0.12878889 -0.06711971
0.44467005 0.1257511 0.27873293 -0.41788098 -0.051805157 -0.37677342 -0.27482647 0.11500775
0.0803663 0.34936213 -0.047123823 0.5955865 -0.48139268 0.27421942 0.19157273 0.20720403
-0.3482517 -0.2333476 0.39178076 -0.55992764 -0.23533514 -0.2227865 -0.04977708 -0.33850923
-0.07551266 -0.13557626 -0.050609954 0.26637092 -0.41398776 0.29900214 0.3661979 0.121678516
-0.009797263 0.21547075 0.28746432 -0.50720805 -0.458653 -0.119208016 0.11107985 -0.112553366
0.15575457 0.644384 0.098211974 0.2709045 0.26196784 -0.40870917 -0.53450525 -0.046779852
-0.16881828 0.25660926 -0.03723534 -0.4927349 0.2111935 -0.13362202 -0.18605384 -0.43649417
0.25561514 0.16313452 -0.017036295 -0.039850008 0.60476685 -0.08447521 0.027581176 0.19514307
-0.2419147 -0.4920683 -0.038596153 -0.1572766 -0.5055676 -0.31439632 -0.1014326 -0.14870958
-0.2961474 0.08899199 -0.35947135 -0.34824586 0.3514404 0.0059851464 0.23299639 -0.23126422
0.73122025 0.6943329 -0.21737799 -0.3656965 -0.042453013 -0.024741126 -0.40204918 0.39143208
0.037811663 -0.37829688 0.15682477 0.13016573 -0.60487264 -0.048076943 -0.161737 -0.28883767
-0.26424932 -0.61479187 0.31016806 -0.6033403 -0.016257022 0.104316555 -0.20438458 -0.3777438
-0.48686445 0.08452711 -0.42926764 0.12229158 -0.20330541 0.061104063 0.54635996 -0.17037639
-0.043722462 -0.07276731 -0.1649414 0.13204321 0.112582915 0.066263005 -0.11835072 -0.41588107
0.1574213 0.2122263 -0.0723334 0.037299003 -0.20742165 -0.024420653 -0.22038403 0.04587618
-0.13983466 0.21136706 0.3538898 0.068651326 -0.10358082 0.05237199 0.21394354 -0.48001862
-0.5465175 -0.17031188 0.24925217 -0.52715147 0.29397652 0.099499606 -0.013262779 -0.37038884
-0.02297405 -0.18365343 -0.028969916 0.020544304 -0.21120614 0.31379762 0.5284471 -0.26362994
-0.09125243 -0.26413718 0.08435618 -0.27163202 -0.15041597 -0.16154198 0.55030215 -0.013007908
0.12880123 0.1344211 -0.21007493 -0.23562396 -0.27441308 0.7262291 0.09716143 -0.062001903

lmbd.hidden_to_logvar.bias f4 [20]
00000000: 6b19 83be 293c c0bb bf5d 09bc e345 30be
00000010: 249d 10bd e590 1abd 5db8 3d3c dabf adbe
00000020: 5f43 b7bb 8d7a abbe 160d 93be 28b5 373c
00000030: ce4d 13be 9610 9cbe 0ce3 3abe b439 abbe
00000040: 9b1a 783d 8f4b b0be 31cb 55bc 01fa 04be
-0.2560533 -0.0058665466 -0.008384167 -0.1721416 -0.03530611 -0.03773584 0.0115796 -0.33935434
-0.005592748 -0.33491936 -0.2872092 0.011212625 -0.14385149 -0.30481404 -0.18250674 -0.33442461
0.060572248 -0.34432647 -0.013048933 -0.12985994

decoder.model.weight_ih_l0 f4 [80, 1]
00000000: a6c5 243e 170c 623e 3494 3b3e d0c5 9b3b
00000010: b87e 7d3d 4703 cbbd 6395 04be 9ed2 ca3c
00000020: cdbf c73d 91d6 3fbd 7cef b03d 1bd9 e33d
00000030: c984 6f3d 70c1 45be 9fa6 a4bd 0523 36bd
00000040: 063b 843d 2861 51be f15f ed3d 78c4 66bb
00000050: 17ca 093e 1897 5cbe 558e 383e 26c3 25be
00000060: 2706 083e 0ab2 473e 8818 1fbe 5537 033e
00000070: 14fe 1c3d 94a2 003e aae3 1c3e d81f 3f3e
00000080: 6ac0 c73c b526 db3d 8aee 0cbe 1ae5 5abe
00000090: ddbe 523e 3c04 4fbd 9d64 2abe 223e 81bd
000000a0: d5c7 35be 0aa5 fe3c d22f c53d bd5d 46be
000000b0: 22e4 61be cc43 41bc 1c81 543e 4b6b 1b3e
000000c0: a165 30be 9b63 d0bc f9c9 27bb 5aaa 463e
000000d0: 8a51 ff3d b71e 1abe 1b8c 40be 90c1 ee3d
000000e0: 0fd9 da3d b8c4 e5bd 4fd9 84bd 0f3a c9bd
000000f0: cc95 0e3c b9a3 153e 363c 36be 7ea4 393b
00000100: f49b 4f3e c427 abbd 8340 53be fd10 34ba
00000110: e540 52be 34ef 473d d2a6 6b3d 5915 86bd
00000120: 8ee3 c3bd 5931 7cbd 8df0 d8bb facc 0c3e
00000130: b9f0 9e3c 944d c6bd 8231 15be f169 c4bd
0.16091022 0.22074924 0.18318254 0.0047538057 0.061888427 -0.099127345 -0.12947612 0.024758633
0.0975338 -0.046835486 0.08639428 0.11125394 0.058476243 -0.19312072 -0.08039593 -0.04446699
0.0645657 -0.20447218 0.11590565 -0.003521232 0.13455997 -0.21542013 0.18023045 -0.16187724
0.13283597 0.1950151 -0.15536702 0.12814076 0.038328245 0.12562019 0.15321222 0.18664491
0.024383742 0.10700742 -0.1376287 -0.21376458 0.20580621 -0.050541148 -0.16639943 -0.06310679
-0.17752011 0.031084556 0.096282616 -0.19371696 -0.22059682 -0.011795949 0.20752376 0.15177648
-0.17226268 -0.02543812 -0.0025602563 0.19400921 0.12466724 -0.1505078 -0.18803446 0.11658013
0.10685932 -0.11219162 -0.06486761 -0.09825527 0.008702707 0.14613236 -0.17796406 0.0028326805
0.20274335 -0.08357194 -0.20630078 -0.00068689865 -0.20532568 0.048812106 0.05753214 -0.065470405
-0.09564887 -0.0615705 -0.0066204728 0.13750067 0.019401895 -0.096827656 -0.14569667 -0.09590519

decoder.model.weight_hh_l0 f4 [80, 20]
00000000: 2995 d1bd 116e 19be 26e6 efbd 2854 a13e
00000010: ebd7 0f3f 4228 04be f5f7 ebbe ead1 d93d
00000020: 9145 bc3e 1da9 babe 35db cdbd a9fe acbe
00000030: fdfe 1cbf 883a 47be ee5b bc3e 860e 8abd
00000040: 5890 08be 287d 19bd b4c2 82bf a644 d3be
00000050: 29d3 c9be e663 e5bd 4580 01bf 562e b33e
00000060: 3636 443f 6423 2cbe c513 89be 18a0 763e
00000070: b7ba 613e 9cc8 e7bd bf17 e9bd 0aff febe
00000080: 1c3e f4be 824e cdbd 9e10 993e bf26 b1be
00000090: c257 e9be 72e4 d2be 19be 79bf 2b4e 14bd
000000a0: 533d f9bd ed04 8dbe 97f5 f6be 89d1 423e
000000b0: 7549 8c3e 0a7a aebd 4be8 afbd 3cef af3e
000000c0: 63e6 5e3e 8f47 4ebe 11de a1be 3019 48be
000000d0: 214e afbe 24e6 b1be 907f 453e e5df cdbe
000000e0: c241 24be ca11 b8be f75c 92bf f615 0e3d
000000f0: dd5c c7be a3ae edbd 705f 9dbd e745 f03e
00000100: bf5b fd3e cd7e 6abe dff9 8abe 986c 443e
00000110: aea3 b03e ce1f c1be c0bf 31be 8788 b5be
00000120: 500f 38bf d37b bbbd 1bee 6d3f b6db acbe
00000130: ca36 c6be 6fab 76be 9413 7bbf 6006 53bf
00000140: b5ab a7bd 0c8a cbbe 4888 90be 7511 093f
00000150: 43f6 853e 9a32 6cbe 3655 14be e539 423e
00000160: a93c 553e 0130 c6bd 45c7 b9bd 0fa1 0fbe
00000170: 361e f4be f8f0 77be b340 663f dd78 3bbe
00000180: 727f 9dbd 1da6 c7be 067f 43bf 7e81 16bf
00000190: 919d 30be 8c8b b7be 5a5f ebbd b994 023e
000001a0: 5e3e a43e f0fb d4be 3847 c2be e553 8e3e
000001b0: 7829 0d3e 4fe0 d5be 53da c7be 6b67 5abe
000001c0: 2abd 22bf 9a9a b1be 80d7 3abd bb63 99be
000001d0: 9713 a3be c483 cfbe 6dc7 84bf 6990 02be
000001e0: 5f99 08be c264 c1be df9b eabe 3270 373e
000001f0: cf0b ab3e 323c bcbe 0a03 edbc 3488 983e
00000200: aa9a 0f3e f06a 90be c2d3 bbbe 6dc3 8dbe
00000210: 701c 23bf a300 95be 476b c83e ddce 95be
00000220: 3b04 21be 820f b5be e5fc 01c0 9bb2 9ebd
00000230: 9055 babe 5d05 2cbe adc7 8bbe 0567 9b3e
00000240: c651 2e3f e1ca cebe e13c 47bd b894 ad3d
00000250: 68ff e53e bb58 bbbe ff40 55be 79df 1abe
00000260: 88ba 04bf 1e4f 31be 3765 363f 4a58 f1bd
00000270: a9cb 0bbe 1708 96be fd56 71bf ffa4 9fbe
00000280: 5336 dfbd 6b2c 8fbd 313a 11be 04ef e13e
00000290: c588 063f 0805 a0be a2ec 9fbe 699a bc3e
000002a0: 6604 a93e 2a4f debe c1bd 3fbe 57cf 73be
000002b0: fcee 28bf f474 70bd 0418 493f 7b91 92bd
000002c0: 95cd a6bd 2826 8fbe 5460 7abf cb34 d7be
000002d0: 82b5 eebe 588a 5ebe ef9f 9cbe 4415 0c3e
000002e0: cb26 d63e 7c34 c5be 887d d6be 9562 653e
000002f0: 7edd 903d 8d5b c0be 624f e8be b7a8 66bd
00000300: f776 0cbf aa71 9bbe c9a2 063f 1db6 47bd
00000310: 26f0 cebe 83b0 89be 09e5 62bf aac5 dc3d
00000320: dba3 51be 97df a8be d03b 69be 9146 ed3d
00000330: c2a9 ba3e f958 9cbe 40c9 acbe 5af2 ec3e
00000340: 3982 973e 02fe c8be 85c7 64be bc8d cfbe
00000350: 81f5 ddbe 8200 5ebe a9e6 eb3e a090 9dbe
00000360: b4db debe 3e27 6bbe e82e a1bf 9042 85be
00000370: eaee bbbe f8c8 f6be ac4e f1be bc2b 263e
00000380: 0366 143f 3148 83be cf0d ecbe 267c 563e
00000390: 6b6c 023e 2217 dcbd 24a5 91be 3b45 01be
000003a0: 7b35 e1be 5246 eebd 2166 b43e ede2 c8be
000003b0: 993c b2bd d93f 97be 477b afbf 27fa 22be
000003c0: 9acb 86be f9d6 80be 7a6d 81bd 436d 813e
000003d0: 5517 973e 9736 1ebe 051a e1bd 2408 643e
000003e0: a93c b93e 19fe 31be b6b0 4ebe d064 10be
000003f0: 2aef 96be ed58 9abe d49f 5f3f e4d7 adbe
-0.10233528 -0.14983393 -0.11713819 0.3150952 0.5618884 -0.12905982 -0.46087614 0.10635741
0.36771825 -0.36457148 -0.10051576 -0.3378804 -0.6132658 -0.19455922 0.36788887 -0.067410514
-0.13336313 -0.037472874 -1.0215669 -0.41263312 -0.39418915 -0.11200695 -0.5058635 0.3499629
0.7664522 -0.16810375 -0.26772895 0.24084508 0.22043882 -0.1131756 -0.11381482 -0.49803954
-0.47703636 -0.1002474 0.2989549 -0.34599873 -0.45574766 -0.41189915 -0.9755569 -0.03620736
-0.121699 -0.2754282 -0.48234245 0.19025244 0.27399793 -0.08519371 -0.08589228 0.3436221
0.21767573 -0.20144485 -0.31614736 -0.19540858 -0.34239295 -0.34745896 0.19286942 -0.4020988
-0.1604071 -0.35951072 -1.1434621 0.034688912 -0.38938037 -0.11605575 -0.07684219 0.4692833
0.4948406 -0.22899933 -0.27143762 0.1918205 0.34499878 -0.37719578 -0.17358303 -0.35455725
-0.71898365 -0.09154477 0.92941445 -0.33761376 -0.38713676 -0.24088834 -0.9807675 -0.824316
-0.081870474 -0.3975376 -0.28228974 0.5354226 0.26164445 -0.23066178 -0.1448563 0.18967398
0.20823921 -0.09677125 -0.09071211 -0.14026283 -0.476793 -0.24213016 0.89942473 -0.18307824
-0.07690324 -0.38993922 -0.763657 -0.5879134 -0.17247607 -0.35848653 -0.11492796 0.12752046
0.32078832 -0.41598463 -0.3794496 0.2779838 0.1378535 -0.41772696 -0.39033756 -0.21328513
-0.6356989 -0.34688264 -0.045615673 -0.299589 -0.31850883 -0.40530217 -1.037336 -0.127504
-0.13339756 -0.37772185 -0.45822045 0.17913893 0.33407447 -0.36764675 -0.028932113 0.29791415
0.14023843 -0.28206587 -0.36684996 -0.2768816 -0.6371527 -0.29102048 0.39144346 -0.29259387
-0.1572427 -0.35363394 -2.0310605 -0.0774891 -0.36393404 -0.16798921 -0.27300778 0.30352035
0.68093526 -0.4038916 -0.048642043 0.084756315 0.44921422 -0.36591133 -0.20825575 -0.1512431
-0.51847124 -0.17315337 0.7124819 -0.11784418 -0.13651909 -0.29303047 -0.9427336 -0.3118057
-0.108990334 -0.06990894 -0.14182355 0.44127667 0.52552444 -0.3125384 -0.31235224 0.36836556
0.33011168 -0.43419772 -0.18724729 -0.23809563 -0.6598966 -0.058705285 0.7855227 -0.071566544
-0.081446804 -0.27958798 -0.97803235 -0.42032465 -0.46622854 -0.21732461 -0.3059077 0.13679987
0.41826472 -0.38516605 -0.41892648 0.22400887 0.07073496 -0.37569848 -0.45373064 -0.056313243
-0.54869026 -0.30360156 0.5259214 -0.04875766 -0.40417594 -0.2689248 -0.8863073 0.10779889
-0.20472662 -0.32983086 -0.22776723 0.11585725 0.3645764 -0.3053663 -0.33747292 0.4627865
0.2959154 -0.39256293 -0.22341736 -0.40537822 -0.43351367 -0.21679881 0.46074417 -0.30774403
-0.43526995 -0.22964188 -1.259244 -0.26027346 -0.36705714 -0.48200202 -0.47130334 0.16227621
0.5796816 -0.25641015 -0.46104285 0.20945796 0.1273667 -0.107466 -0.28446305 -0.12624066
-0.43986115 -0.11634506 0.35234168 -0.3923563 -0.08702964 -0.295409 -1.3709496 -0.15915738
-0.2632721 -0.2516401 -0.06319709 0.25278673 0.29509988 -0.15450512 -0.10991291 0.2226873
0.36179093 -0.17382087 -0.20184597 -0.14100957 -0.29479343 -0.3014597 0.87353253 -0.33953774

decoder.model.bias_ih_l0 f4 [80]
00000000: 57aa 373e c4ef 2a3e 0086 c23e 9df4 e6bc
00000010: 9956 bb3e 4614 9a3e 09b7 323e 677f c73d
00000020: 1a92 0f3e be1d 573e 0721 d63d da97 573e
00000030: fa16 ac3d fdf6 883e bda2 473d f0e6 b53e
00000040: fd88 aa3e eda9 bf3e fc9a 4b3d f0be c9bd
00000050: 9b9e c13e 360b b43e 84d9 b33e 3d61 963e
00000060: 1738 9e3d e6ed 8e3e 6039 833e 8e5c b03e
00000070: 2691 833e 23a2 583e 0a37 8b3e f524 863e
00000080: 1ef1 063e 47f9 d13e 98e5 8ebc 9b80 c33e
00000090: dbda 233c 90a7 b03e 50be f03d bad2 103e
000000a0: ce6c 85be 0794 aebc f1c5 a2be 1230 72bd
000000b0: 2a55 a63e 5977 8fbe c68d c0bd 00f4 843e
000000c0: 982a 9e3e 9ef1 90be 7b1d 97be b4ba 9cbe
000000d0: a1a6 91b9 ba8d b6be c656 9fbd 0212 9ebe
000000e0: 8317 8abd 98ee a3be 7f21 22be e302 9fbd
000000f0: be57 fe3e acb1 9a3e bd40 0c3f ba65 6a3e
00000100: 268b cc3e 6035 bd3e 4e4d 913e a1f1 813e
00000110: a58a e53e 22ed 943e 1a3a 023e 7922 9f3e
00000120: 5c10 483e 4f91 963e 072a f53e be4a 9d3e
00000130: d17b da3e aee5 e03e c07c 143f 8c5a 1d3e
0.17936073 0.16693026 0.3799286 -0.028192813 0.36589506 0.30093592 0.17452635 0.09741097
0.14020577 0.2100744 0.10455518 0.2105402 0.0840282 0.26750937 0.048739184 0.35527754
0.3330764 0.3743433 0.04970835 -0.098508716 0.3781632 0.35164803 0.3512689 0.29371062
0.07725542 0.27915877 0.2562971 0.34445614 0.25696677 0.211556 0.2719043 0.2620007
0.13177916 0.41010496 -0.017443463 0.38184056 0.01000091 0.3450284 0.11755049 0.14142886
-0.26059574 -0.02131082 -0.31791642 -0.059127875 0.3248685 -0.28020743 -0.09402041 0.25967407
0.3089187 -0.2830934 -0.2951468 -0.30611193 -0.00027780703 -0.35655004 -0.077802226 -0.30873114
-0.06742766 -0.3201797 -0.1583309 -0.077642225 0.49676317 0.30213678 0.5478628 0.22890368
0.39949912 0.36954784 0.2837929 0.2537966 0.4483234 0.29087168 0.12717476 0.31080988
0.1953749 0.29407737 0.47883627 0.30721086 0.4267259 0.43925232 0.58002853 0.15366572

decoder.model.bias_hh_l0 f4 [80]
00000000: 98fb fa3d cf23 d53e 833b 4c3e 1e6d 79bc
00000010: 5039 8b3d 98b6 ba3e 498c f03d a5d5 293e
00000020: 9d89 4f3c 83d1 d83e e4ed dc3e 0fc1 f03d
00000030: 5b25 a43d e3ac ce3e dbdc 663e a5b6 9c3e
00000040: 8482 193d a45a a73e a824 aa3e 1927 603e
00000050: 3b20 0e3e ecc3 283e 9ac6 d93c c512 6f3e
00000060: 0988 db3d 88d7 233e 17c2 6c3e 4215 c93e
00000070: ce22 cc3e f66b 7e3e c4b3 ad3e 4876 953e
00000080: 17a3 1f3e a26a 743e 1595 9d3d aae2 8d3e
00000090: 4e96 e23d 3ad9 743e 7755 aa3d f6f0 413e
000000a0: ea5c bdbe be72 a6be 5ff0 02be c08d 373e
000000b0: 57d8 da3d 32d5 b4be e0ea 6ebe 86d3 6d3e
000000c0: 5c5f 103e 6b37 66bd a0a5 81be 9196 6ebe
000000d0: 552e c6bd addc 31be 0012 aeba cd0e e0bc
000000e0: 508d adbe 7af4 49bd a00a d6bc a973 813c
000000f0: 02e3 8c3e 2121 c63e 1cac d43e efe4 053f
00000100: 473c 9f3e 6085 1c3f e34a 813e 7235 763e
00000110: 9794 cb3e b876 903e 5728 dc3e 53c3 de3e
00000120: 48f2 203f f3eb e93e 57a3 bd3e 5117 533e
00000130: 6bae 0e3f 16d1 9d3e 8dff e83e 05ec 9a3e
0.12255019 0.41628882 0.19944577 -0.0152237695 0.06798041 0.36467433 0.11745507 0.16585405
0.012667087 0.42347345 0.43150246 0.11755573 0.080149375 0.40366277 0.22545187 0.30608097
0.037477985 0.3268634 0.33231091 0.21889915 0.13879482 0.16480988 0.026583958 0.23347004
0.10719306 0.16000187 0.23120914 0.3927403 0.39870304 0.24845871 0.33926213 0.29191804
0.15589558 0.23868802 0.07694451 0.27711993 0.110638246 0.2391099 0.083170824 0.18939576
-0.3698495 -0.32509416 -0.12787007 0.17925167 0.10685795 -0.35318905 -0.23331785 0.23225221
0.14098877 -0.056205194 -0.25321674 -0.23299624 -0.09676806 -0.17369337 -0.0013280511 -0.027350808
-0.33896875 -0.049305417 -0.026128113 0.015802221 0.27516943 0.3869715 0.4153756 0.5230245
0.31100675 0.61141014 0.25252447 0.24043825 0.39761803 0.28215575 0.42999527 0.43508396
0.6286969 0.45687827 0.3703868 0.20614363 0.5573489 0.30823582 0.4550747 0.30258194

decoder.latent_to_hidden.weight f4 [20, 20]
00000000: fdcd f43d 38ad c1bd 887b c63c dcb9 b9bd
00000010: 7c9c 19bd f2f8 78be 7845 043f 18d6 8a3d
00000020: 77de 0e3d 2932 3b3e e105 8a3e 0ae7 e9be
00000030: 64bd f8be 49ea c3bd ee7e 94be 5cd5 a53e
00000040: b5c2 633e b84f 21be 940e aebe b4a6 82be
00000050: 6e0f 9ebe 78c3 11be 14d0 1ebc 8a7f 16bf
00000060: 943e cc3d 17f5 cabd d12b ec3e 99b5 e93d
00000070: bc46 083e 0684 3e3e c983 16be 0d62 c3be
00000080: 91b7 f9bd 6a0a bebd 7c25 97be f049 e53e
00000090: 30c7 9fbd 6315 3a3e 4f72 adbd e0c2 febe
000000a0: 0db5 5d3d b21d 2ebd 232d 99bd bc7e efbe
000000b0: a5a8 42be e759 58be aeb6 973e 84b7 12bc
000000c0: e173 ca3e af49 303e a675 0f3e d7a1 74be
000000d0: 5fae 0bbf 492a 773e 5208 3ebe 0e8d 173e
000000e0: b70f dc3e acff e3bb e037 70be 73ed 0abf
000000f0: b95d 223d 6f48 9b3e cf33 f93e 9de1 f93e
00000100: 448d 9d3e acf6 173f 34b3 3fbf 6d45 7b3e
00000110: 95cd 6a3e eeda 01bf c92e 5fbe 2d7b 6f3e
00000120: 40ed 093f 94a7 de3d 4293 acbe 65e7 b33d
00000130: ab15 19be 2fa0 213e 5029 48be 839a 1f3f
00000140: 2ab3 f83d 8503 bc3e 509b 853e e67a 8e3e
00000150: d39c c33e c0ba 02bd c64d 3abf c689 75be
00000160: 573f 213d 99e5 2cbe 23b7 0d3e 12f4 f03e
00000170: fefe 303e ab7c 053e dd6e e13e 6d83 0ebf
00000180: f581 d2bd 1391 57bd a7ea c7bc b68e 053f
00000190: 39b7 34bc 5e30 0a3e 9632 1fbf c125 38be
000001a0: a619 8ebe 2867 f7be 4ac8 213f 9472 bbbe
000001b0: 5d41 7cbe d19c 523f 0d05 013f 85f4 7abe
000001c0: a28b c4be 4b10 373e b44d 1cbe 3e16 ff3e
000001d0: 10e2 7a3e 3e24 b13d 6bac e63d 2c0d cbbe
000001e0: b7ea 2c3e 3694 9abd 7ee0 75bd 26a0 84be
000001f0: 3dfb b7be 00ee e7be e806 a23e 930c 9dbe
00000200: ab4b 043e 7500 023f aa34 f03e 8197 f03d
00000210: c7c8 1cbf c08a 5cbe b17a a3be 369f a23e
00000220: 215e 39be e2cc 463d 2c7c ab3d 5f61 003d
00000230: 587b 1d3e 8b28 883e 59db 873e 875e cf3e
00000240: cabc ec3d 5250 4a3e 8b89 85be b829 7ebe
00000250: 479c 893d 240d 34bf 4540 c13d e949 823e
00000260: b3cf 183f 6e8a 09be 04f8 96bd dc76 8abe
00000270: dc46 2e3e af1f 673e db79 22be 7505 473c
00000280: 2153 36be ed11 23be 166e a5bc 505d 8c3e
00000290: 3d3c 4a3e 15b7 76bd 7251 e7bc 338b 513e
000002a0: 7ea7 2ebe 0a43 babd 685a 913d f937 bc3e
000002b0: 4e38 68bd 1593 2bbe 034e aabe 19bb 773e
000002c0: 7388 be3e fbca 333e 9620 8a3d b46f c23e
000002d0: 3fe6 da3d 6597 e0be 4341 2bbe 1f7c ccbe
000002e0: 1e8a ea3d 937f 20bf 52e9 813e 27ec 4cbe
000002f0: 9994 df3c 48f8 4c3e f6ac f43d bfaf 92bd
00000300: a3a1 9cbe 6530 6f3e ff33 0c3e 3179 9ebb
00000310: 5ae7 c5bd 1a3c 82be 2129 d7be 42e9 c3bd
00000320: f54e b1be e265 a9be 5416 edbd a0f7 01bf
00000330: 6c69 b5be cc4b 06bf a144 ad3e 10c0 803e
00000340: fadd 0c3e e70e 2b3f 78b7 65be 4ebb 873c
00000350: 51d2 08bf 13be 67bb 3dc0 263e a2b9 163f
00000360: 7bc6 b33e a17f a53e f28e 253e 802c c5bc
00000370: 9f7f 133e afae dd3b 3a6b 14bf df63 72be
00000380: a47d 6bbe 7a93 ecbe 2c7c 083f a3e0 3abb
00000390: e529 4f3e 9c93 2a3f b06f e13e aedc aabe
000003a0: 0c55 30be 0664 02be 3fe8 c83c 2b54 183e
000003b0: 7963 323e c099 bc3e 7719 a53e b775 0bbf
000003c0: a935 45be 94ec fabd 4633 433d c7f9 9ebd
000003d0: 83fc eebc 8097 6ebe 0320 e73e de92 3cbe
000003e0: 694d 453d 642d 2b3f 3915 cc3d 9dfe d53d
000003f0: 2890 273e 8b78 a43e e0be d33e fef2 81be
0.11953352 -0.09456867 0.024228826 -0.09068653 -0.03750275 -0.24313715 0.516685 0.067791164
0.034880128 0.18280853 0.2695761 -0.4568408 -0.48581994 -0.09566171 -0.2900309 0.32389343
0.22242244 -0.15753067 -0.33995497 -0.2551781 -0.30871147 -0.14234722 -0.009693164 -0.5878836
0.09972873 -0.099100284 0.4612718 0.1141159 0.13308233 0.1860505 -0.1469871 -0.38160744
-0.12193216 -0.0927933 -0.29520786 0.44782972 -0.07801664 0.18172221 -0.08469068 -0.49758053
0.05412774 -0.04250879 -0.07479312 -0.46776378 -0.19009645 -0.21128045 0.2963156 -0.008954886
0.39541534 0.17215608 0.14009723 -0.23889862 -0.54562944 0.24137224 -0.18557861 0.14799902
0.4298074 -0.0069579687 -0.23458815 -0.5426857 0.039640162 0.303287 0.4867234 0.48804942
0.3077184 0.59360766 -0.7488282 0.24538203 0.22929986 -0.50724685 -0.21795191 0.23386832
0.5387764 0.10871807 -0.337061 0.087843694 -0.14949672 0.15783761 -0.1954701 0.6234514
0.12143548 0.36721435 0.26095057 0.2782814 0.38205585 -0.03191638 -0.7277492 -0.23978338
0.039367046 -0.1688446 0.13839392 0.4706121 0.17284772 0.13035838 0.44029894 -0.5566929
-0.102786936 -0.052628588 -0.024403883 0.52170885 -0.011030012 0.13495013 -0.62186563 -0.17983152
-0.27753943 -0.4832089 0.6319624 -0.36610854 -0.24634309 0.8227053 0.5039833 -0.2450734
-0.3838778 0.17877309 -0.15264016 0.49821657 0.24500299 0.08649491 0.11263355 -0.39658487
0.16886412 -0.075478 -0.060028546 -0.25903434 -0.35933867 -0.45298767 0.31645894 -0.30673656
0.1291949 0.5078195 0.4691518 0.11747647 -0.6124386 -0.21537304 -0.31929544 0.31762093
-0.18102314 0.048535235 0.08373293 0.03134286 0.15379083 0.26593432 0.26534536 0.40501806
0.11559446 0.19757202 -0.260815 -0.24820602 0.06719261 -0.7033255 0.094360866 0.25447014
0.59691924 -0.13431713 -0.07371524 -0.27043808 0.17019218 0.2257068 -0.15866797 0.012147297
-0.17805149 -0.15924807 -0.020194095 0.27414942 0.19749542 -0.060233194 -0.028237078 0.20463257
-0.1705608 -0.09094818 0.07097322 0.36761454 -0.05669432 -0.16755326 -0.33262643 0.24192466
0.37213477 0.175579 0.067444965 0.37975848 0.10688447 -0.43865505 -0.16724114 -0.39938447
0.11452125 -0.6269466 0.25373322 -0.2001196 0.027292537 0.20016587 0.11947052 -0.07162427
-0.3059207 0.23358305 0.1369171 -0.0048362245 -0.096632674 -0.2543648 -0.42023566 -0.09565975
-0.34630552 -0.33085543 -0.115765244 -0.5076847 -0.35431993 -0.52459407 0.33841422 0.25146532
0.13756552 0.66819614 -0.22433269 0.016568806 -0.5344592 -0.0035361096 0.1628427 0.58877003
0.35112366 0.32323936 0.1616781 -0.02406907 0.14404152 0.0067652087 -0.57976115 -0.2367091
-0.22997147 -0.46206266 0.5331447 -0.0028515242 0.20230825 0.66631484 0.44030523 -0.3337149
-0.17219943 -0.12733468 0.024524806 0.14875858 0.17420758 0.36836052 0.3224599 -0.54476494
-0.19258751 -0.12252155 0.04765632 -0.07762485 -0.029173141 -0.2329998 0.4514161 -0.184154
0.048169527 0.66866136 0.099649854 0.10448954 0.16363585 0.32123217 0.41356564 -0.253807

decoder.latent_to_hidden.bias f4 [20]
00000000: 47c8 8fbe 4360 90be 94b5 61be cc25 023f
00000010: bd5a f43e ba08 07bf d915 a3be b785 d53e
00000020: 4e21 b63e 9f58 03bf fe40 a9be c68b bdbe
00000030: bfc4 77bd 7046 76be c2fc 7b3d 3204 98be
00000040: f36d 24bf f1f0 abbe 1b0f 21bf b873 b13e
-0.28082487 -0.28198442 -0.22041923 0.50838923 0.47725478 -0.5274769 -0.31852606 0.4170358
0.35572284 -0.513071 -0.33057398 -0.370207 -0.060490366 -0.24050307 0.061520346 -0.296907
-0.6423027 -0.3358226 -0.62913674 0.346586

decoder.hidden_to_output.weight f4 [1, 20]
00000000: cc47 fbc0 450f ffc0 9e02 00c1 a621 f840
00000010: 3953 f540 ef31 fbc0 c973 f4c0 3cc2 f640
00000020: 6b41 f840 0160 00c1 7f86 f3c0 2eb1 f4c0
00000030: d480 fec0 34b6 fec0 5166 ff40 effa fbc0
00000040: e053 f2c0 6e12 01c1 963e f4c0 1218 01c1
-7.8525143 -7.970614 -8.000639 7.7541075 7.666409 -7.8498454 -7.639134 7.7112103
7.7579856 -8.023438 -7.610168 -7.6466284 -7.953226 -7.9597416 7.98124 -7.8743815
-7.5727386 -8.066999 -7.63264 -8.068377
